RollerBall/Assets/Models/RollerBall2_32775_steps.onnx (onnx, 79278 bytes, 8 tensors)

network_body._body_endoder.seq_layers.0.weight f4 [128, 8]
0	0xbe4ac19c	-0.19800419
1	0x3dc22682	0.09480001
2	0xbf0b337f	-0.5437545
3	0x3e7a7f36	0.2446259
4	0x3dc9944d	0.09842739
5	0x3e8af504	0.27140057
6	0x3ecf5045	0.40490928
7	0x3e95cf5e	0.2925977
8	0xbe83bc29	-0.25729492
9	0x3ed9aa67	0.4251282
10	0xbd984385	-0.07434753
11	0x3ea9dec8	0.3317778
12	0xbe9737bb	-0.29534706
13	0xbe8f513d	-0.27991667
14	0xbebd8fb1	-0.3702369
15	0x3e8214f0	0.254066
16	0xbdbcd3a6	-0.09220056
17	0xbe9ab5b9	-0.30216768
18	0xbec33285	-0.3812448
19	0xbda59e30	-0.080868125
20	0xbece45c6	-0.40287608
21	0x3eaca73c	0.3372134
22	0x3e187ff3	0.14892559
23	0x3eb026d5	0.34404626
24	0x3f2caefa	0.67454493
25	0x3eb10a6e	0.3457827
26	0x3e86ea9d	0.2635087
27	0x3ebde45e	0.37088293
28	0xbce2ca85	-0.02768446
29	0xbec31eaa	-0.38109332
30	0x3dac7f29	0.084226914
31	0x3e027743	0.12740807
32	0x3e34f291	0.17670657
33	0x3f34ab55	0.7057393
34	0xbececc6d	-0.4039034
35	0x3ecf476f	0.40484187
36	0xbec64e09	-0.3873141
37	0x3e1e3c63	0.15452723
38	0xbee32fe3	-0.44372472
39	0x3f1c2ed6	0.61008966
40	0x3ea45f59	0.32103994
41	0xbda14077	-0.07873624
42	0xbe64f5b3	-0.22359352
43	0x3c3c9824	0.0115108825
44	0xbee3678d	-0.4441494
45	0x3eee8aa2	0.46590143
46	0xbd9ef7d7	-0.077621154
47	0x3eb1f18b	0.34754595
48	0xbdceb817	-0.10093706
49	0xbe6cfa07	-0.23142253
50	0x3c845e71	0.016158314
51	0xbed81417	-0.42202827
52	0x3e2618ea	0.16220441
53	0xbea85ed1	-0.3288484
54	0xbe28b683	-0.16475873
55	0x3e1dca94	0.15409309
56	0x3edbecc4	0.42954075
57	0xbe2224bb	-0.15834324
58	0x3e8a813a	0.27051717
59	0xbe8eb43d	-0.27871886
60	0x3ebb8430	0.3662429
61	0xbe806a13	-0.25080928
62	0xba768e44	-0.00094053545
63	0x3ec4af1d	0.3841485
64	0xbed4bbb6	-0.41549462
65	0xbee2659e	-0.44218153
66	0x3ec9eecb	0.39439997
67	0x3ec1c9fb	0.3784941
68	0xbd535dee	-0.05160325
69	0xbd383f99	-0.044982526
70	0x3ea2003a	0.31640798
71	0xbec6b1ec	-0.3880762
72	0x3e8f68d2	0.2800966
73	0xbe5a5e68	-0.21325076
74	0x3e2b2358	0.16712701
75	0x3db409a2	0.087909
76	0x3e8d6958	0.27619433
77	0xbe81117a	-0.25208646
78	0x3e494833	0.19656448
79	0xbf3175b1	-0.6932021
80	0x3e9e99b8	0.30976653
81	0x3e03477f	0.12820242
82	0x3e0fa2d2	0.14026955
83	0xbf1ae043	-0.60498446
84	0x3d50b59a	0.05095444
85	0x3eb9adb0	0.36265326
86	0xbe73b98c	-0.2380125
87	0xbe60082c	-0.21878117
88	0xbe1e0c06	-0.15434274
89	0xbdd7001b	-0.10498067
90	0xbe4c0d44	-0.19926935
91	0x3d3704de	0.044682376
92	0xbdda9e9d	-0.10674784
93	0xbf066e39	-0.52511936
94	0x3e0a94b7	0.13533293
95	0xbdac3377	-0.08408254
96	0xbdc7ae74	-0.09750071
97	0xbe88d251	-0.2672296
98	0x3f17d5d5	0.59310657
99	0x3a0a18ef	0.00052679976
100	0x3e51e813	0.20498686
101	0xbdc1c262	-0.09460904
102	0x3e216388	0.15760624
103	0x3e79c34d	0.24390908
104	0x3e26f0f5	0.16302855
105	0x3e9d284b	0.30694804
106	0x3e8e0ded	0.27745
107	0xbe1d061a	-0.15334359
108	0x3d18ec53	0.03733475
109	0x3de7e894	0.11323658
110	0x3dea46a9	0.114392586
111	0xbdb76518	-0.08954829
112	0x3e815b09	0.25264767
113	0x3ed51b73	0.41622505
114	0xbda3a104	-0.07989696
115	0x3f0c06e1	0.54697996
116	0x3e275678	0.16341579
117	0x3e30c8e5	0.17264135
118	0xbe80f3e7	-0.25186083
119	0xbe85961e	-0.26091093
120	0x3de28891	0.11061204
121	0x3c66f3b5	0.01409619
122	0x3e733319	0.23749961
123	0xbdda5b7f	-0.10661983
124	0xbe92ff9f	-0.28710648
125	0xbd9d093c	-0.07667777
126	0x3e609dc7	0.21935187
127	0x3dde4dce	0.10854684
128	0xbd9ac9ea	-0.07558043
129	0x3f5a01a4	0.85158753
130	0x3d18bc33	0.037288856
131	0xbec1ecac	-0.3787588
132	0x3ba4358f	0.0050112675
133	0xbe8bf278	-0.27333426
134	0x3de93ea7	0.11388903
135	0x3ebf6b10	0.3738637
136	0xbe818125	-0.25293842
137	0xbf0afe90	-0.5429468
138	0xbf5d35f3	-0.86410445
139	0x3e566a4a	0.20938984
140	0x3e87bb4d	0.26510087
141	0x3ed94012	0.42431694
142	0x3e8e816a	0.2783311
143	0xbebbf77c	-0.36712253
144	0xbd41270e	-0.047156386
145	0x3f437247	0.7634625
146	0xbe8dce1e	-0.27696317
147	0x3e3fca75	0.18729575
148	0xbcf74631	-0.030184837
149	0x3d01d8ed	0.031701017
150	0x3f03b5d8	0.51449347
151	0x3e231761	0.15926887
152	0x3ea623a2	0.3244906
153	0x3d2026d6	0.039099537
154	0x3d907e14	0.070552975
155	0x3e5a3884	0.21310622
156	0xbe348fb6	-0.17632946
157	0x3e95621b	0.2917641
158	0xbe7e1971	-0.24814393
159	0xbf18a81f	-0.5963153
160	0xbe182415	-0.14857514
161	0xbd699f9a	-0.057036974
162	0xbe6e7fc9	-0.23290934
163	0xbdb41b2c	-0.08794245
164	0x3d935ca3	0.071954034
165	0xbf0c8d23	-0.5490286
166	0xbf14cfdd	-0.58129674
167	0xbf364984	-0.71205926
168	0xbcb8bda3	-0.022551363
169	0x3e8ce887	0.27521154
170	0x3cf0dde3	0.029402679
171	0x3e90eee9	0.28307274
172	0xbe099d01	-0.13438798
173	0xbec84f3e	-0.39122957
174	0xbf0da85d	-0.55335027
175	0xbee0e0a4	-0.43921387
176	0x3e688af4	0.22709256
177	0xbe515b6d	-0.20445032
178	0xbe144867	-0.14480744
179	0xbd8cf4c0	-0.0688262
180	0x3e77881e	0.24173018
181	0x3f3cfcc4	0.7382319
182	0x3d9cdd1a	0.07659359
183	0x3e698137	0.22803198
184	0xbde2e6c3	-0.110791706
185	0x3d020dc6	0.031751417
186	0x3e953ecc	0.29149473
187	0xbf44fed8	-0.7695136
188	0xbf152bb7	-0.5826983
189	0x3e00a8b6	0.12564358
190	0xbe0bf84c	-0.13668936
191	0x3c5dae07	0.013530261
192	0x3e0005f4	0.12502271
193	0x3ed9d8b8	0.42548156
194	0x3f0d66f9	0.5523525
195	0xbe8d83b7	-0.27639553
196	0xbf0e3d2b	-0.55562085
197	0xbde4d171	-0.1117276
198	0x3e9d98b0	0.30780554
199	0x3f4e97a5	0.8070014
200	0xbf05c74d	-0.52257234
201	0xbe5111e4	-0.20416981
202	0x3c8dae5d	0.017295057
203	0x3f0e8d3c	0.55684257
204	0xbd8164ae	-0.06318031
205	0xbea7e5ef	-0.32792613
206	0xbe2eaf4b	-0.17059056
207	0xbe1abee8	-0.15111887
208	0xbe29de21	-0.16588642
209	0x3ea8f9fd	0.33003226
210	0x3e812dc0	0.25230217
211	0xbeaa87fc	-0.33306873
212	0x3d184520	0.037175298
213	0xbea5c8f4	-0.32379878
214	0x3e89c264	0.2690612
215	0x3eea549d	0.4576768
216	0xbdcbb854	-0.09947267
217	0xbe474588	-0.19460118
218	0xbe8c4101	-0.27393344
219	0x3e7e8431	0.24855115
220	0xbef6c7ce	-0.48199314
221	0xbda04595	-0.07825772
222	0x3eb01ba1	0.3439608
223	0xbebb9c07	-0.36642477
224	0xbeab59a6	-0.33466834
225	0x3e9d486a	0.3071931
226	0xbd3e67a4	-0.04648556
227	0x3d2b40c3	0.04180981
228	0xbdb174c7	-0.08664852
229	0x3f4e705e	0.8064021
230	0x3d9d5ee7	0.07684117
231	0x3e00684f	0.1253979
232	0xbdda1805	-0.106491126
233	0x3cde415c	0.027130775
234	0x3d502fe7	0.050826933
235	0x3ec1c5c2	0.3784619
236	0xbdab2628	-0.08356887
237	0xbeb1ea3c	-0.3474902
238	0x3ec391c6	0.38197154
239	0xbdfaea9e	-0.12251781
240	0xbe444709	-0.19167723
241	0x3f0422f5	0.5161584
242	0xbedd700f	-0.43249556
243	0xbd3afd3c	-0.04565166
244	0x3eb2f27b	0.34950623
245	0x3e9da059	0.30786398
246	0x3f11b558	0.56917334
247	0x3e07aa06	0.13248453
248	0xbdccaeb5	-0.0999426
249	0x3d03042c	0.0319864
250	0xbebb1de2	-0.36546236
251	0x3ef5f451	0.4803796
252	0x3e91295b	0.28351864
253	0x3e885ecf	0.26634833
254	0x3ec95db4	0.39329302
255	0xbd8ce0ff	-0.06878852

network_body._body_endoder.seq_layers.0.bias f4 [128]
0	0x3c09d5d4	0.008412797
1	0xbd010e2d	-0.03150766
2	0x3db01246	0.085972354
3	0x3beea845	0.007283243
4	0xbcdcb07c	-0.026939623
5	0x3d977f30	0.07397306
6	0xbd8d9597	-0.069132976
7	0x3d8af501	0.06785012
8	0x3dd420ae	0.10357796
9	0x3d2dae13	0.04240234
10	0x3d7bb4ed	0.06145184
11	0xbdc399d2	-0.09550823
12	0x3cb5a379	0.022172676
13	0x3c5f4733	0.013627815
14	0x3b5cf1f7	0.0033713558
15	0xbcb6c5b2	-0.022311065
16	0x3c245b1c	0.010031488
17	0x3c6170d2	0.013759809
18	0x3d4fc9cc	0.050729558
19	0x3c4484d9	0.011994564
20	0x3d1d4229	0.038393173
21	0x3d5fa04a	0.054596223
22	0x3d8fcae9	0.07021124
23	0x3cd44800	0.025913239
24	0xbc516b53	-0.012781936
25	0x3d0ce9fa	0.034402825
26	0x3cbacbe7	0.022802306
27	0x3c52c5ba	0.0128645245
28	0x3ceee37f	0.029161213
29	0x3d52c4b7	0.051457133
30	0xbc832bc0	-0.016012073
31	0xbb89848b	-0.0041967086
32	0x3c3c1ce8	0.011481501
33	0x3a4f9715	0.00079189363
34	0x3bd5e678	0.006527718
35	0x3ba30358	0.004974764
36	0xbd511d71	-0.05105347
37	0xbc77e6e2	-0.01513073
38	0xbd8e3436	-0.06943552
39	0x3d573382	0.052539356
40	0x3d6075e4	0.05479993
41	0x3d41c62e	0.04730814
42	0xbcb83527	-0.022486283
43	0x3d286652	0.041113205
44	0x3d1c8840	0.038215876
45	0x3bf2cf1a	0.0074099423
46	0xbb937885	-0.004500451
47	0x3d2e9b5f	0.042628642
48	0x3d34e238	0.04416105
49	0x3c4ce6a4	0.012506161
50	0x3caeecf7	0.021353228
51	0x3d230793	0.039802145
52	0xbc54008d	-0.012939584
53	0xbd180940	-0.037118196
54	0xbbf0aa35	-0.007344509
55	0xbcd0ca81	-0.025487186
56	0x3cd78ab4	0.026311256
57	0x3dab7229	0.08371384
58	0xbce44c49	-0.027868407
59	0x3d2d713a	0.04234431
60	0x3d2b1d99	0.041776273
61	0xbd13101b	-0.03590403
62	0x3d00a46b	0.0314068
63	0x3bc3fde9	0.005981196
64	0xbc705c64	-0.014670465
65	0x3cd6ad17	0.026205583
66	0x3c264fc0	0.01015085
67	0x3d9bb018	0.076019466
68	0xbd72864f	-0.059210118
69	0x3d3c973b	0.046042662
70	0x3d72c2d0	0.05926782
71	0x3cfe42b7	0.031037671
72	0xbc4182d7	-0.01181098
73	0xbc9735a0	-0.018458188
74	0xbd282a7b	-0.041056138
75	0x3af01312	0.001831623
76	0x3c92f58d	0.017939353
77	0x3c08d733	0.008352089
78	0x3c26e83f	0.010187208
79	0x3d385b8b	0.045009177
80	0x3d134f4e	0.035964303
81	0x3d59a666	0.053137206
82	0x3d9959cf	0.07487833
83	0xbd88ac98	-0.06673545
84	0x3d5163cb	0.05112056
85	0x3cf9daed	0.0304999
86	0x3d211358	0.03932509
87	0x3d8e3768	0.06944162
88	0x3cd041f5	0.025422076
89	0x3c3cb41d	0.011517552
90	0x3c22c897	0.00993552
91	0xbcea980c	-0.028636955
92	0x3d1748b9	0.036934588
93	0xbcf17f39	-0.02947961
94	0x3b8dd803	0.004328729
95	0xbcc623ba	-0.024186958
96	0x3d36746a	0.044544615
97	0x3cac30ba	0.021019328
98	0x3cbc64ea	0.022997338
99	0x3a8200b6	0.0009918425
100	0xbc438aed	-0.011934978
101	0xbde0e1fd	-0.10980604
102	0x3db53534	0.08848038
103	0x3bc0a20a	0.0058786916
104	0xbd327339	-0.043566916
105	0x3d41a73d	0.04727863
106	0x38cceff2	9.772171e-05
107	0x3d1e9a36	0.038721286
108	0xbd16042e	-0.03662508
109	0x3d455435	0.04817601
110	0x3cc89161	0.024483385
111	0x3d340680	0.04395151
112	0x3cbaad09	0.022787588
113	0xbc617ea8	-0.013763107
114	0xbc046433	-0.00808053
115	0x3d2bf7e2	0.041984446
116	0x3d2a87a3	0.04163326
117	0xbc74f211	-0.014950291
118	0x3ceb19a9	0.02869876
119	0xbcc7ef80	-0.024406195
120	0xbc21ae26	-0.00986818
121	0x3c8c735d	0.017144853
122	0x3d9e1e3b	0.0772061
123	0xbdcae68c	-0.099072546
124	0x3d12038c	0.035647914
125	0x3d0a6357	0.033786144
126	0x3d29ce4a	0.0414565
127	0xbb8c081f	-0.004273429

network_body._body_endoder.seq_layers.2.weight f4 [128, 128]
0	0x3de82bb0	0.11336458
1	0x3c3a2ca3	0.011363181
2	0x3e171b3c	0.14756483
3	0xbdbbebab	-0.091758095
4	0xbd339c62	-0.04385031
5	0xbe6dd5b8	-0.23226058
6	0xbc1947eb	-0.0093555255
7	0x3b0bb97c	0.0021320274
8	0x3df7af42	0.12093975
9	0x3e13ec1d	0.14445539
10	0x3c4896a5	0.012242948
11	0x3e2067dc	0.15664619
12	0xbd30f16c	-0.043198988
13	0xbd48b43a	-0.049000002
14	0x3e1794d1	0.14802863
15	0xbe3e9752	-0.18612412
16	0x3dc51216	0.0962259
17	0x3dd589da	0.10426684
18	0x3dbd456c	0.09241757
19	0x3d2b7134	0.041856006
20	0x3c84ffbb	0.016235223
21	0x3da49a11	0.08037198
22	0xbc13d627	-0.009023226
23	0xbe69d671	-0.22835709
24	0xbd33bcd7	-0.043881264
25	0x3c7e3e1b	0.015517737
26	0xbe131bb6	-0.1436604
27	0xbcde1910	-0.02711156
28	0x3e40a2e4	0.18812138
29	0x3c06f32a	0.008236686
30	0x3e503f72	0.20336702
31	0x3dfbd50b	0.12296494
32	0x3caac882	0.020847563
33	0x3cc73ab5	0.024319986
34	0x3e3de546	0.18544492
35	0x3e055b44	0.13023096
36	0xbde47154	-0.11154428
37	0x3defcba5	0.11708764
38	0x3b47dc41	0.0030496272
39	0xbdc81aab	-0.097707115
40	0x3d288769	0.041144762
41	0xbd25a42a	-0.040439762
42	0x3e75174e	0.23934671
43	0x3d151114	0.03639324
44	0xbe1dd69d	-0.154139
45	0x3e369a06	0.17832193
46	0xbdc87c33	-0.09789314
47	0xbc41be12	-0.011825101
48	0x3deb5c24	0.11492184
49	0x3bc81ee5	0.0061071985
50	0xbd0ca0ef	-0.034333166
51	0x3c987d44	0.018614419
52	0xbdb34507	-0.087534
53	0x3c979d15	0.01850752
54	0x3b4c4f87	0.0031175332
55	0x3d7e88ec	0.062142298
56	0xbda1adb0	-0.078944564
57	0xbe6ed11e	-0.2332196
58	0x3e578a75	0.21048911
59	0x3db2b952	0.08726753
60	0x3e1a75f6	0.15084061
61	0x3d919278	0.07108015
62	0xbd0228ea	-0.0317773
63	0x3d8ffd54	0.070307404
64	0xbd20ac44	-0.039226785
65	0xbc905464	-0.017618366
66	0xbc2c945a	-0.010533417
67	0x3e03023b	0.1279382
68	0x3d248dc1	0.04017425
69	0x3dbe0aca	0.092794016
70	0xbd67dc6e	-0.056606703
71	0xbdd99f4d	-0.10626087
72	0x3d983eb1	0.074338324
73	0x3d07953f	0.033101317
74	0xbd46d9ec	-0.04854767
75	0x3d21db83	0.039515983
76	0xbdb07ac1	-0.086171634
77	0xbe0b0438	-0.13575828
78	0xbd912d14	-0.07088676
79	0xbd6d95e7	-0.058004286
80	0xbe2af7a1	-0.16696025
81	0x3e6dfc68	0.23240817
82	0xbb8be796	-0.0042695506
83	0xb9b58e43	-0.00034629003
84	0xbdda845c	-0.10669777
85	0x3d5593f5	0.052143056
86	0xbc294f23	-0.010333809
87	0x3d5576fe	0.052115433
88	0x3dd92a44	0.10603765
89	0xbc2c41a4	-0.010513697
90	0x3e4a69c3	0.19766907
91	0xbcd79805	-0.026317606
92	0x3debdf20	0.11517167
93	0x3d205fc2	0.03915382
94	0xbd96dd10	-0.07366383
95	0x3d12e6d3	0.035864662
96	0xbe0d9c99	-0.13829269
97	0xbdfb7d2d	-0.12279735
98	0x3dce22de	0.10065244
99	0x3e1b70f9	0.15179814
100	0x3e48bb56	0.19602713
101	0x3bd48160	0.0064851493
102	0xbdf78ac8	-0.12087017
103	0xbd12384a	-0.035698213
104	0xbe302fa2	-0.1720567
105	0xbcda3b3b	-0.026639571
106	0x3e064efc	0.13116068
107	0x3cb2e2cf	0.021836666
108	0xbd77a397	-0.060458746
109	0x3c35293a	0.011057192
110	0xbcec04fe	-0.028810974
111	0xbda4b0cb	-0.08041533
112	0xbd125797	-0.035728063
113	0xbe37c1f1	-0.17945077
114	0x3e6d341f	0.23164414
115	0x3d94c65a	0.07264395
116	0x3c29fc62	0.010375114
117	0x3d783a98	0.060602754
118	0xbd88bc1e	-0.066765055
119	0x3d26db68	0.040736586
120	0xbd374d58	-0.044751495
121	0x3e45afbd	0.1930532
122	0x3cd1cf94	0.025611676
123	0xbc4773a3	-0.012173566
124	0x3cf59903	0.029980188
125	0x3d40e7d8	0.047096103
126	0xbca74578	-0.020418867
127	0x3c50f5b9	0.012753897
128	0xbe280e37	-0.16411673
129	0xbd9b5d01	-0.075860985
130	0xbe8d60da	-0.27612954
131	0xbd6811c1	-0.056657556
132	0xbddab680	-0.1067934
133	0xbe03fc1f	-0.12889145
134	0x3cd8f5f2	0.026484463
135	0x3d8e8e9f	0.069607966
136	0xbcba8e80	-0.022773027
137	0x3e061ef4	0.13097745
138	0xbd5c79b4	-0.053827003
139	0x3d4a389b	0.04937039
140	0x3d2b951a	0.04189024
141	0x3e08390b	0.1330301
142	0x3e35095f	0.17679356
143	0xbc284ced	-0.010272247
144	0x3b47f8e6	0.0030513345
145	0xbdd8eb71	-0.10591782
146	0xbe2903a8	-0.16505301
147	0x3da6ec50	0.08150542
148	0x3d339e58	0.04385218
149	0x3dfae735	0.122511305
150	0xbe3dfb0e	-0.18552801
151	0x3de5b1a3	0.11215522
152	0xbd9bc2ba	-0.076055005
153	0xbdaee148	-0.08539063
154	0x3d000732	0.031256862
155	0xbddf5a4e	-0.10905896
156	0xbcfe06bc	-0.03100907
157	0xbe21aa7a	-0.15787688
158	0xbd97498c	-0.07387075
159	0xbd860343	-0.06543591
160	0x3dde1fba	0.10845895
161	0xbdf3a323	-0.1189635
162	0xbcee72a7	-0.029107405
163	0x3d85ba6f	0.065297
164	0x3e163b6d	0.14671107
165	0x3d1dc351	0.038516346
166	0x3d2d5991	0.042321745
167	0x3db742d0	0.0894829
168	0x3e72e7b2	0.23721197
169	0x3dfe7edd	0.12426541
170	0x3e00f511	0.12593485
171	0x3bde15f0	0.0067775175
172	0x3d6e2adf	0.058146354
173	0xbca4cb9b	-0.020116618
174	0xbd8fc8f6	-0.07020752
175	0xbe2d660e	-0.16933462
176	0x3e207793	0.15670614
177	0xbcaed89f	-0.021343527
178	0x3e197056	0.14984259
179	0xbe7d2c55	-0.24723943
180	0x3d407ded	0.046995092
181	0xbdae166f	-0.085003726
182	0x3d7839ca	0.060601987
183	0x3d866dec	0.06563935
184	0x3e33dccd	0.17564698
185	0x39ca67dc	0.00038605824
186	0x3a764b07	0.0009395335
187	0xbc86c693	-0.01645211
188	0x3ddef804	0.10887149
189	0xbe1d1e49	-0.15343584
190	0x3e1681b0	0.1469791
191	0x3c28bd5e	0.010299055
192	0xbc28b27e	-0.010296462
193	0x3d865f5d	0.06561158
194	0xbd925706	-0.07145505
195	0x3dc968ff	0.098344795
196	0x3dcc5c0f	0.09978496
197	0xbb8294c5	-0.00398502
198	0xbc9bdb70	-0.019025534
199	0xbda558e6	-0.08073597
200	0x3dcafe99	0.09911842
201	0xbda7e03b	-0.081970654
202	0x3d10a035	0.035309035
203	0x3dd3ec12	0.10347761
204	0x3dda1c23	0.10649898
205	0x3cfb5bc8	0.030683413
206	0x3c8c01e4	0.017090745
207	0xbdb5aef5	-0.08871261
208	0x3dc9c270	0.09851539
209	0xbe62b482	-0.22139171
210	0xbe580f33	-0.21099548
211	0xbcd28a03	-0.025700575
212	0x3bf7fe3b	0.0075681484
213	0xbd2cfc22	-0.04223264
214	0x3dec8200	0.11548233
215	0x3e4d1992	0.20029286
216	0xbe155c28	-0.14585936
217	0x3e138a04	0.14408118
218	0xbd0857bf	-0.033286806
219	0xbcfc8b0f	-0.030828027
220	0x3d1f6a59	0.03891978
221	0xbd05f977	-0.03270861
222	0xbe21d4ec	-0.1580388
223	0xbdbd552f	-0.09244763
224	0xbd37ca27	-0.044870522
225	0xbcf47b6e	-0.029844012
226	0xbde79ae5	-0.11308841
227	0x3e0c655e	0.13710544
228	0xbe157864	-0.14596707
229	0xbe0c8b66	-0.13725051
230	0x3e447b70	0.19187713
231	0x3db69885	0.089158095
232	0xbc3e11d0	-0.0116009265
233	0x3dcb0b18	0.09914225
234	0xbd73cea8	-0.059523255
235	0x3e293778	0.16525066
236	0xbaf99dbc	-0.0019044201
237	0x3db14473	0.08655634
238	0xbdee65bc	-0.11640498
239	0x3d93d784	0.07218841
240	0x3d9428b3	0.07234325
241	0xbd19f93c	-0.037591204
242	0x3dd60a80	0.104512215
243	0xbdf3e379	-0.11908621
244	0x3d176ffb	0.036972027
245	0xbdce015a	-0.100588515
246	0x3d114425	0.03546538
247	0xbd6a31db	-0.057176452
248	0x3e0e8ef9	0.13921727
249	0x3cb9bc26	0.022672724
250	0x3d5c6d5f	0.053815242
251	0x3e2ac025	0.1667486
252	0xbdf267d0	-0.11836207
253	0xbcdac3a8	-0.026704624
254	0xbd9c2702	-0.07624628
255	0x3da03fdf	0.078246824

network_body._body_endoder.seq_layers.2.bias f4 [128]
0	0x3c5aa3d8	0.013344727
1	0x3d92af24	0.07162312
2	0x3bd5307d	0.0065060244
3	0xbcf222c3	-0.029557591
4	0x3cd44066	0.025909614
5	0xbb219f05	-0.0024661433
6	0xbc789924	-0.01517323
7	0x3cf1248e	0.029436376
8	0xbd334668	-0.043768317
9	0xbc6b0714	-0.014344949
10	0x3da6c404	0.08142856
11	0xbbcc3dcd	-0.006232953
12	0xbb75a939	-0.0037484898
13	0x3c4a5e4f	0.0123515865
14	0x3c852fc3	0.016258126
15	0x3b12ff8a	0.0022430145
16	0x3d4ade15	0.0495282
17	0x3cef4429	0.029207306
18	0x3c4a94e2	0.012364598
19	0x3c82141d	0.015878731
20	0x3c6520a3	0.013984832
21	0x3c722ea7	0.014781631
22	0xbc4a8ee7	-0.012363172
23	0xbcee4635	-0.029086212
24	0xbcc4c79b	-0.02402096
25	0x3cfdafdb	0.030967643
26	0x3d0ad168	0.03389111
27	0x3d03e33a	0.032199122
28	0xbd2970e2	-0.04136742
29	0xbb989a65	-0.004657077
30	0xbce17cad	-0.02752527
31	0x3d538add	0.051646102
32	0x3d2520a6	0.04031434
33	0x3d1df078	0.038559407
34	0x3d2cae62	0.042158492
35	0x3d804691	0.062634595
36	0xbcab7e0f	-0.020934133
37	0x3d04d447	0.032429006
38	0xbc702c58	-0.01465901
39	0x3cb23030	0.021751493
40	0x3cacb961	0.02108449
41	0x3d3b9360	0.045794845
42	0x3b1a5e42	0.0023554717
43	0x3b98b609	0.004660372
44	0x3c272996	0.010202786
45	0xbca34c30	-0.01993379
46	0x3d9af535	0.07566301
47	0xbd58f920	-0.05297196
48	0xbc37c094	-0.011215348
49	0x3ae14085	0.0017185366
50	0x3d2e6048	0.04257229
51	0x3b994750	0.0046776906
52	0x3d830e12	0.06399168
53	0x3d9a1a88	0.07524592
54	0x3cf2ab33	0.02962265
55	0x3aeb07e5	0.001793143
56	0x3cf2396f	0.029568402
57	0x3ce1d5fd	0.027567858
58	0x3d76d2c6	0.060259603
59	0x3cdca68d	0.026934886
60	0x3d11dac2	0.035609014
61	0x3da2e23f	0.07953309
62	0xbc8f72ee	-0.017510857
63	0xbbd96f30	-0.006635569
64	0x3c8e98de	0.017406877
65	0x3ad1d9c6	0.0016010336
66	0x3daee478	0.08539671
67	0x3c6325d8	0.013864003
68	0x3ccf7c3d	0.025327796
69	0x3d5eb461	0.05437124
70	0x3d9d9301	0.076940544
71	0x3c3efa38	0.0116563365
72	0x3d631ae1	0.055445556
73	0x3b8e2007	0.004337314
74	0xbce0cdca	-0.027441878
75	0xbc8b102a	-0.016975481
76	0x3c49a5b2	0.012307571
77	0x3d647c27	0.055782463
78	0x3d0af310	0.03392321
79	0x3c7934ee	0.015210373
80	0xbb996361	-0.0046810363
81	0x3d5beecd	0.053694535
82	0x3d57f60d	0.052724887
83	0x3c817c8e	0.015806463
84	0xbc42ffa4	-0.01190177
85	0x3d302894	0.04300745
86	0xbca1d1b3	-0.019753313
87	0x3d98e137	0.07464831
88	0x3c459caf	0.012061282
89	0x3d2618f1	0.04055113
90	0xbcb42232	-0.021988962
91	0x3dc0be9b	0.09411355
92	0x3cedf198	0.029045865
93	0x3c87dfad	0.01658615
94	0x3c988dc9	0.018622296
95	0x3d4002dd	0.04687773
96	0xbacee3f1	-0.0015784485
97	0xbbcf1b23	-0.0063203736
98	0x3b0d4829	0.0021557903
99	0x3ca6def4	0.020369984
100	0x3d8c5d26	0.06853704
101	0xbc41d1bf	-0.0118297925
102	0xbd0a90fb	-0.03382967
103	0x3d36b341	0.044604544
104	0x3c86f822	0.01647574
105	0xbcba68c4	-0.022755034
106	0x3add186e	0.0016868243
107	0xbc4a707f	-0.012355923
108	0x3c22cdae	0.009936733
109	0xbd0e9ca5	-0.034817357
110	0x3cbd7dae	0.023131218
111	0x3ba157af	0.004923783
112	0x3b477378	0.0030433815
113	0x3c6e4992	0.014543908
114	0xbd25b699	-0.04045734
115	0x3cee25fd	0.029070849
116	0xbc1b076a	-0.009462217
117	0xbb3e9786	-0.0029082014
118	0x3c0b60ca	0.008506963
119	0x3b663f61	0.0035132992
120	0x3cfcff7e	0.030883547
121	0x3ca13ff1	0.01968381
122	0x3d111c6c	0.035427496
123	0x3d9e6c73	0.07735529
124	0xbd58bc5b	-0.052914005
125	0x3aca1963	0.0015418943
126	0x3c2a34e5	0.010388588
127	0xbaa33328	-0.0012451159

action_model._continuous_distribution.log_sigma f4 [1, 2]
0	0x3d0493f8	0.032367676
1	0xbe0798ee	-0.13241932

action_model._continuous_distribution.mu.weight f4 [2, 128]
0	0xbd99da07	-0.075122885
1	0xbc46f1ef	-0.012142642
2	0xbd6d1fb3	-0.05789156
3	0xbc2bc300	-0.010483503
4	0xbce187fe	-0.027530666
5	0xbd4ab4a6	-0.049488686
6	0x3ba04589	0.0048911017
7	0x3cbb82d9	0.022889541
8	0xbb23fe34	-0.0025023343
9	0x3c6e5cd7	0.014548502
10	0x3da6eaf6	0.08150284
11	0xbcbb2266	-0.02284355
12	0x3babec6a	0.0052466886
13	0xbdbfa238	-0.09357113
14	0xbd2f6fa1	-0.042831067
15	0x3cc24b57	0.023717565
16	0x3b4810df	0.0030527634
17	0xbd05ce5b	-0.0326675
18	0xbd5b790d	-0.05358224
19	0xbc6966ef	-0.014245733
20	0xbcf2e481	-0.029649975
21	0xbb876dbe	-0.0041329553
22	0xbd553893	-0.052055907
23	0x3cb2a38e	0.021806505
24	0xbd22dc57	-0.039760914
25	0xbd8b2922	-0.06794955
26	0x3c4e1449	0.012578079
27	0x3d1ffd78	0.039060086
28	0xbc3bad8d	-0.011454952
29	0xbd88aac9	-0.066732
30	0xbd02fec1	-0.031981234
31	0xbcd0ec12	-0.025503192
32	0xbd857f68	-0.065184414
33	0x3d75635d	0.059909213
34	0xbd6aa7e4	-0.05728902
35	0x3da64ca2	0.08120085
36	0x3bdd7150	0.0067578927
37	0x3d2a21f0	0.04153627
38	0xbcb6e063	-0.022323793
39	0xbd08db22	-0.033412106
40	0xbd5baddc	-0.053632602
41	0xbdbf834f	-0.09351217
42	0x3cf4c051	0.02987686
43	0x3c1a89d0	0.009432271
44	0x3d4de640	0.05026841
45	0x3d253331	0.040332023
46	0x3d320add	0.04346739
47	0x3a97d3f4	0.0011583553
48	0xbd1e0963	-0.03858317
49	0xbd13c635	-0.036077697
50	0x3d595674	0.053060964
51	0x3cb0f287	0.021600021
52	0xbca64bfb	-0.020299902
53	0x3c861cdb	0.016371181
54	0x3d5a4432	0.053287692
55	0xbc91c056	-0.017791908
56	0xbdd4e883	-0.103959106
57	0x3d8392c1	0.064244755
58	0xbd843b4d	-0.06456623
59	0xbd881354	-0.066443115
60	0xbbbfbe3d	-0.0058515356
61	0xbd01b2db	-0.03166471
62	0xbd4f0911	-0.050545756
63	0xbd7c885f	-0.06165349
64	0xbd414b39	-0.04719088
65	0x3bbfad2c	0.005849501
66	0x3da8d9a8	0.0824464
67	0x3d211f5a	0.03933654
68	0xbd70cb2e	-0.058787517
69	0x3d70dc07	0.058803584
70	0x3ce04624	0.027377196
71	0x3a84cd36	0.0010131958
72	0x3d480a3b	0.04883788
73	0x3d41f940	0.047356844
74	0xbc05be92	-0.008163111
75	0x3cd9209f	0.026504813
76	0xbdab8ec2	-0.08376838
77	0x3d013361	0.03154314
78	0xbdd5320b	-0.104099356
79	0xbd24228a	-0.040072
80	0xbc33f5e2	-0.010983916
81	0xbcd49aa2	-0.02595264
82	0xbc5b926c	-0.013401609
83	0x3ccbc9ce	0.024876501
84	0x3cb00ea0	0.021491349
85	0xbd59d488	-0.0531812
86	0xbcc6d391	-0.024270805
87	0x3ddc4561	0.107554205
88	0x3ceb6c7d	0.028738255
89	0xbcab8bf1	-0.020940753
90	0x3cd12a66	0.025532912
91	0xbb521ec5	-0.0032061797
92	0x3d2023b5	0.039096553
93	0x3d58a95f	0.0528959
94	0x3b147f64	0.0022658939
95	0xbdcf50de	-0.10122846
96	0xbd988222	-0.07446696
97	0x3ccb41d2	0.024811659
98	0xbd4d1a1b	-0.050073724
99	0xbd96735e	-0.07346223
100	0x3dafa26c	0.085759014
101	0xbc8a655d	-0.016894037
102	0xbcbad8fc	-0.022808544
103	0xbd646376	-0.055758916
104	0x3d24f1bb	0.040269595
105	0x3b9f856c	0.0048682
106	0xbd639e59	-0.055570934
107	0x3cb9067a	0.022586096
108	0xbd44d5d8	-0.0480555
109	0x3bc62f44	0.006048115
110	0x3cb200d5	0.021728912
111	0xbdcd2d09	-0.100183554
112	0xbd2f011f	-0.04272568
113	0xbb828566	-0.0039831875
114	0xbba81229	-0.005129118
115	0xbcdeccd0	-0.027197272
116	0xbc9c7b2c	-0.019101702
117	0x3c6927c6	0.014230674
118	0xbd761921	-0.06008256
119	0xbc61e982	-0.013788583
120	0xbd81de0e	-0.06341182
121	0x3c15d277	0.009144417
122	0x3d51eec5	0.0512531
123	0xbd9d67e2	-0.0768583
124	0xbc8a4288	-0.016877428
125	0xbd5e3981	-0.05425406
126	0xbd8849ff	-0.06654739
127	0xbd4d5890	-0.050133288
128	0xbcde7cbf	-0.027159093
129	0x3dce67ba	0.10078378
130	0x3d061e8b	0.03274397
131	0x3c87ef25	0.016593525
132	0xbd344149	-0.044007573
133	0x3bfe1c26	0.0077548204
134	0x3c6c597c	0.014425632
135	0xbd518e0c	-0.051160857
136	0x3bd6cf94	0.006555507
137	0x3ce82db6	0.02834211
138	0xba80d97c	-0.000983044
139	0xbce5344d	-0.02797904
140	0xbc96d134	-0.018410303
141	0xbd0cc7ea	-0.03437034
142	0x3cbac96e	0.022801127
143	0xbc35322c	-0.011059325
144	0xbd5a5272	-0.053301282
145	0x3d81a3ba	0.063300565
146	0xbcf86090	-0.030319482
147	0xbd7238b9	-0.059136126
148	0xbd525cb8	-0.051357955
149	0xbccb923d	-0.024850005
150	0xbce6d7f2	-0.028179143
151	0x3ce71ca5	0.028211901
152	0xbc646041	-0.013938964
153	0xbc776954	-0.015100796
154	0x3d78ea00	0.060770035
155	0x3d7fd1f1	0.062456075
156	0xbbda68ef	-0.006665341
157	0xbc2fa9c4	-0.010721628
158	0x3892dcd1	7.002953e-05
159	0x3d8c86e5	0.068616666
160	0x3d64cd4c	0.05585985
161	0xbcaa743e	-0.020807382
162	0x3d881dc0	0.06646299
163	0x3bc76894	0.0060854647
164	0x3b6670f5	0.0035162542
165	0x3cedecda	0.029043604
166	0x3aed1ed4	0.0018090853
167	0x3d123218	0.035692304
168	0xbc4c6c5d	-0.012477008
169	0xbab9789b	-0.0014150323
170	0x3d201735	0.039084632
171	0xbd85c486	-0.065316245
172	0xbccbce7b	-0.024878731
173	0x3d197af4	0.037470773
174	0xbd97aecd	-0.074063875
175	0x3c688d0d	0.014193785
176	0xbd010d0b	-0.03150658
177	0x3d2da9a1	0.0423981
178	0x3c8b9530	0.017038912
179	0xbb48b01b	-0.0030622545
180	0x3de1b0cb	0.11020049
181	0x3dca8a70	0.09889686
182	0xbb9c0049	-0.004760776
183	0x3c94b39b	0.018152049
184	0xbd4df627	-0.050283577
185	0xbd016678	-0.031591862
186	0x3dc07a5c	0.09398338
187	0xbb8a440b	-0.004219537
188	0x3da7b508	0.08188826
189	0x3e0983b2	0.13429144
190	0xbab5a04d	-0.0013856977
191	0xbc9de34c	-0.019273423
192	0xbd53d063	-0.051712405
193	0xbb5391c8	-0.0032282937
194	0xbc5855cc	-0.013204049
195	0x39d95fd9	0.00041460877
196	0xbd14e686	-0.036352657
197	0xbb550e62	-0.0032509794
198	0x3dd35f5f	0.10320925
199	0xbd333cf4	-0.0437593
200	0x3d1aa68d	0.03775649
201	0x3c88b7fb	0.016689291
202	0xbc93220d	-0.017960573
203	0xbc03a732	-0.008035468
204	0xbc3edeec	-0.011649828
205	0xbd8ca9c7	-0.0686832
206	0xbbb2d060	-0.005456969
207	0x3d6ad942	0.0573361
208	0xbd09de19	-0.033659074
209	0x3dd52106	0.10406689
210	0x3dba5261	0.09097744
211	0x3d012b95	0.031535704
212	0x3c88c870	0.016697139
213	0x3d8cb057	0.06869572
214	0x3c8af94c	0.016964577
215	0xba6cfd4e	-0.0009040431
216	0x3d2346f1	0.039862577
217	0x3db316b1	0.087445624
218	0xbc583c7c	-0.013198014
219	0x3de5abc4	0.11214402
220	0x3d62d4db	0.055378776
221	0x3b173e0e	0.002307776
222	0xbcfd8b04	-0.030950077
223	0x3d3b5b03	0.045741092
224	0xbc906b8b	-0.017629405
225	0xbbb8ccf8	-0.0056396686
226	0xbcd5cac0	-0.026097655
227	0x3cc931d4	0.024559893
228	0xbc6e2bd6	-0.0145368185
229	0xbc502c3c	-0.012705859
230	0xbc7bcac5	-0.015368168
231	0x3d2c66ab	0.0420901
232	0x3d08ce53	0.03339989
233	0xbae49797	-0.0017440197
234	0x3c43c12e	0.011947913
235	0x3caae895	0.020862857
236	0xbcadba18	-0.0212069
237	0xbcba4f84	-0.022742994
238	0x3d2a8bbd	0.04163717
239	0xbb41cc90	-0.0029571392
240	0x3d45142f	0.04811495
241	0xbd460838	-0.04834768
242	0xbbcbd203	-0.0062201037
243	0x3d9078cf	0.070542924
244	0x3d35b151	0.044358555
245	0x3c9e8c8b	0.019354125
246	0xbbd15fbb	-0.006389586
247	0xbd2c4494	-0.04205759
248	0x3d6e03d6	0.058109127
249	0xbd8c80be	-0.06860493
250	0xbd4a1fb4	-0.04934664
251	0x3dd4691b	0.1037161
252	0x3d3c3f83	0.045959007
253	0x3cc49f2e	0.024001684
254	0x3d0fcb21	0.03510583
255	0xbcbfcbfa	-0.023412693

action_model._continuous_distribution.mu.bias f4 [2]
0	0x3c884d19	0.016638326
1	0x3be3bf38	0.0069502853

action_model._discrete_distribution.branches.0.weight f4 [1, 128]
0	0xbbd594d3	-0.0065179854
1	0x3b00078f	0.0019535755
2	0xbaedeef5	-0.001815288
3	0xbc61dc32	-0.013785409
4	0x3c3fa3b1	0.011696742
5	0x3c678950	0.014131859
6	0xbc0c52ed	-0.008564693
7	0xbbf6a937	-0.007527496
8	0x3b1f1def	0.0024279316
9	0x3b9ef4d1	0.0048509617
10	0x3c9e17d7	0.019298477
11	0x3b675c05	0.003530265
12	0xbc1f7132	-0.009731578
13	0xbc9b4b7b	-0.01895689
14	0xbb72f9fb	-0.003707527
15	0xbbef7cd5	-0.0073085823
16	0x3c560e32	0.013064908
17	0xbc2bf53b	-0.010495479
18	0x3c01ab27	0.007914341
19	0x3c4f4dfd	0.012652871
20	0xbafb40f0	-0.0019169133
21	0x3728f4c1	1.00705665e-05
22	0xbc776efa	-0.0151021425
23	0xbc4ce738	-0.012506299
24	0xbc84981c	-0.016185813
25	0x3c83f30f	0.01610711
26	0x3b76193b	0.003755166
27	0xba5238af	-0.0008019311
28	0x3b2264df	0.0024779362
29	0xbb88a89c	-0.0041704904
30	0xbae469bf	-0.0017426534
31	0x3a47f131	0.0007627188
32	0x3c0affa5	0.008483802
33	0x3a0af7f5	0.00053012307
34	0xbc67ee1f	-0.014155894
35	0xbc185173	-0.009296763
36	0x3bb37541	0.0054766242
37	0x3bbfc82f	0.005852721
38	0x39caf2e7	0.0003870942
39	0x3c3b508e	0.01143278
40	0x3c4358dc	0.011923041
41	0xbbb9edfb	-0.0056741214
42	0xbb83a780	-0.0040177703
43	0xbc71cfdb	-0.014759029
44	0xba20c677	-0.0006133089
45	0xb9bd8876	-0.0003615056
46	0x3c4a5029	0.012348213
47	0x3c895e52	0.016768608
48	0x397f70e0	0.00024360744
49	0xbb9f862e	-0.0048682904
50	0xbbafce04	-0.005365135
51	0x3c7c2d48	0.015391655
52	0x3b1b83b6	0.002372963
53	0x3c8f7e4b	0.017516276
54	0x3a6e1d6f	0.00090833654
55	0xbc80b0d4	-0.015709318
56	0x3bc07863	0.005873726
57	0xbba7ecc9	-0.0051246625
58	0xbbf2343a	-0.00739148
59	0x3c1e1cc8	0.009650417
60	0x3c22b4c7	0.009930796
61	0xbbcd6c22	-0.006268994
62	0xbbeafc10	-0.0071711615
63	0xbbddb5a0	-0.006766036
64	0xbc263cbc	-0.010146316
65	0x3ca39aa7	0.019971205
66	0xbbbe6d7c	-0.0058113914
67	0x3a96a93e	0.001149453
68	0x3c624d1d	0.013812331
69	0x3c05f7dc	0.00817677
70	0xbc11a3ba	-0.008889133
71	0x3c2a110e	0.010380043
72	0xbc1067ab	-0.008813779
73	0x3b8b4703	0.0042504086
74	0xbc294289	-0.010330805
75	0xbb8920c3	-0.0041848137
76	0xbbcbc43a	-0.0062184604
77	0xbc387e8d	-0.011260641
78	0xbc2fe918	-0.010736726
79	0xbaeff66d	-0.0018307694
80	0x3a6a1093	0.00089288614
81	0x3be89c7b	0.007098732
82	0x3be4751a	0.0069719674
83	0x3c5a71a8	0.013332762
84	0xbc191e97	-0.009345672
85	0xbbcfec63	-0.006345318
86	0x3c5f9128	0.013645448
87	0xbb449953	-0.0029998615
88	0x3b2a6275	0.0025998626
89	0xbbc48347	-0.005997095
90	0x3b86a124	0.004108565
91	0xbb2ec500	-0.0026667714
92	0xbb9312f7	-0.004488345
93	0xbab207da	-0.0013582662
94	0xbba7cad2	-0.0051206136
95	0x3c9490d9	0.018135475
96	0x3b8e72bf	0.004347175
97	0x3b56b715	0.0032762934
98	0xbc2c4982	-0.0105155725
99	0xbc3f2da7	-0.011668599
100	0x3af4925d	0.0018659342
101	0x3c59117a	0.013248796
102	0xbca2a237	-0.01985274
103	0xbbd64575	-0.0065390416
104	0x3c07aa3b	0.008280332
105	0x3c4439b8	0.011976652
106	0x3ba75d66	0.0051075695
107	0xbb04bdaf	-0.0020254662
108	0x3c6a2ec8	0.01429338
109	0x3b176486	0.0023100688
110	0xbb39b1f5	-0.002833483
111	0x3b2af3e0	0.0026085302
112	0xbc9f0f83	-0.019416576
113	0x3c10eea3	0.008845958
114	0xba5e7a28	-0.00084868306
115	0x3c5b752b	0.013394634
116	0xbc23fc06	-0.010008818
117	0xbc341436	-0.010991147
118	0x3b957eae	0.0045622205
119	0xbb032f14	-0.0020017074
120	0xba85be40	-0.0010203794
121	0x3a4ab8ab	0.0007733206
122	0x3c0a6dff	0.008449077
123	0xbc5091a8	-0.01273004
124	0xbb5e6e55	-0.0033940275
125	0x3bb9a2bb	0.005665151
126	0xbbc173ff	-0.0059037204
127	0xbba96cb9	-0.0051704315
